models/model_best_val_2062.pth.tar (torch, 46018 bytes, 42 tensors)

module.ANet.block.0.weight f4 [3, 1, 3, 3]
000000 50 90 f7 be f9 af 87 be 70 81 b5 be 00 cd 91 be
       -0.4835229 -0.26501444 -0.35450315 -0.28476715
000010 24 a4 04 bf aa 26 a3 bd 9a 75 f8 be 6f 62 6f be
       -0.5181296 -0.07966359 -0.48527223 -0.23377393
000020 70 37 b6 bd 03 47 26 3e 4a b2 f0 3e e9 12 a6 3e
       -0.088972926 0.16238026 0.47011024 0.32436302
000030 80 47 ed 3e 33 af ff 3e e4 97 0d 3e 6f 10 bd 3e
       0.46343613 0.49938354 0.13827473 0.369266
000040 32 47 de 3d fc 7d b7 3e 96 98 d3 be 98 2a 35 bd
       0.10853423 0.35838306 -0.4132735 -0.044230074
000050 3d b8 d9 bd 79 e6 9b bd 93 8d be bd 0f 3b 26 3e
       -0.10630844 -0.076123185 -0.09304347 0.16233467
000060 3e 06 1d 3f ff fd ec 3e c6 77 53 3e
       0.6133765 0.46287534 0.20651159

module.ANet.block.0.bias f4 [3]
000000 3e ff e7 3e 73 2c 0a 3e 8c ca f2 be
       0.45311922 0.13493519 -0.47420156

module.ANet.block.2.weight f4 [3, 3, 3, 3]
000000 96 3e 3c bf 53 da 5d bf a4 41 31 bf 8b 2b 5e bf
       -0.73533 -0.8666126 -0.69240785 -0.8678519
000010 dd 0a 4b bf c0 0f 3d bf 16 54 2c bf 57 50 56 bf
       -0.7931345 -0.7385216 -0.67315805 -0.8371634
000020 62 58 22 bf 1b e8 61 be a4 64 be bd b0 b9 80 be
       -0.6341611 -0.22061197 -0.092965394 -0.25141668
000030 3e 85 3d bd 3b 6f 0a bc ab 3a 11 be 0e e4 d1 3c
       -0.046269648 -0.008449371 -0.14182536 0.02562144
000040 a8 e6 b0 bd 80 a0 64 be 2f e5 ce 3d ca a4 98 3d
       -0.08637744 -0.22326851 0.10102307 0.07453306
000050 f5 bb 50 3d 9b 03 ff 3d 29 79 35 3d bb f5 96 3d
       0.0509605 0.124518596 0.044305 0.07371088
000060 9f 91 9c 3d b4 9f f4 bd d0 94 6e be b1 c0 34 3e
       0.076449625 -0.119445235 -0.23298955 0.17651631
000070 ca a9 91 3e e4 ac a3 3e e8 f6 34 3e 53 75 9f 3e
       0.2844985 0.31967843 0.17672312 0.311442
000080 54 02 8a 3e 84 b0 51 bb b5 80 8b 3d 6e ea 7d 3d
       0.269549 -0.003199608 0.06811658 0.061991148
000090 da 29 3c bd 2a 73 75 be 61 97 80 be 20 db f0 3b
       -0.04593835 -0.23969713 -0.25115493 0.0073503405
0000a0 d6 41 6d 3c 49 15 df 3c 36 4a 69 3b 45 e3 d5 3e
       0.014481029 0.02723183 0.0035597212 0.41774955
0000b0 4a 4d b8 3e e1 aa e2 3f 29 3c 07 40 c1 a7 23 40
       0.35996467 1.7708398 2.113047 2.557114
0000c0 f3 7a 28 40 a4 2f 32 40 1d 28 46 40 4b c4 11 40
       2.6325042 2.7841578 3.0961983 2.2776058
0000d0 9a 3d 10 40 39 07 15 40 74 4f d7 be dc 90 d2 bd
       2.2537599 2.3285658 -0.42052805 -0.10281536
0000e0 93 eb 3e be 70 b1 f0 be 74 15 cf be cd de 74 be
       -0.18644552 -0.47010374 -0.40446055 -0.23913117
0000f0 30 79 87 be 57 ce 6b be c1 71 e5 be df d1 30 3e
       -0.26459646 -0.23027931 -0.4481335 0.1726756
000100 0a d6 bb 3e 84 1a 09 3e bd 2b 7b 3e ce 89 bf 3e
       0.36686736 0.13389021 0.24528404 0.37409824
000110 a7 e9 c7 3e b1 07 91 3e ec 6c a9 3e 67 42 b9 3e
       0.3904545 0.2832618 0.33090913 0.36183473
000120 bd a4 c2 3d d8 2b 7f 3d 3e 46 88 3e fc c9 8d 3e
       0.095040776 0.062297672 0.2661609 0.27693164
000130 3c f2 33 3e ec a4 dd 3b a1 fd 0a be c9 0b 25 be
       0.17572874 0.006764045 -0.13573314 -0.16117777
000140 eb c3 0b 3d
       0.03412239

module.ANet.block.2.bias f4 [3]
000000 f0 db 02 3d f0 29 dd be 06 d4 97 3e
       0.03194803 -0.43196058 0.2965395

module.ANet.block.5.weight f4 [3, 3, 1, 1]
000000 fa 03 c8 3c 6d aa e8 3f b0 a7 f2 3d 3e 5a 0c bf
       0.024415959 1.817701 0.1184839 -0.548252
000010 f0 c4 c2 3f 1a a4 08 3d 8e 90 db be 61 35 a6 3f
       1.521635 0.033359624 -0.42883724 1.298504
000020 a1 be 2c 3f
       0.67478377

module.ANet.block.5.bias f4 [3]
000000 5a d0 cf be 04 40 ac bc 7d ad bb 3e
       -0.40588647 -0.021026619 0.366558

module.ANet.block.7.weight f4 [1, 3, 1, 1]
000000 67 8c 37 3f 27 43 2e 3e 31 76 07 3f
       0.7169861 0.17017804 0.5291472

module.tNet.block.0.weight f4 [8, 2, 3, 3]
000000 5f e6 26 3e 03 f8 14 3e e7 b2 29 3e 1c c2 21 bd
       0.16298817 0.14547734 0.16572152 -0.039491758
000010 47 fb 47 3e 9b ec c4 3e 5b ca 48 3e 7a d6 16 3e
       0.19529448 0.38461766 0.19608442 0.14730254
000020 9c 9a 69 3e 8f a4 e7 be b3 44 57 bf 3a 36 f9 be
       0.22812885 -0.45242736 -0.840892 -0.48674184
000030 5e e8 08 bf 45 3e 7b bf 7b 20 d3 be 86 dd 1f bf
       -0.53479564 -0.9814189 -0.41235718 -0.6244739
000040 45 a0 e9 be 8a fe 95 be f0 eb 42 3e 8e ed a4 3d
       -0.45630088 -0.2929576 0.19035316 0.080531225
000050 6b 69 73 3d 98 52 a2 3e 03 90 91 3e 08 33 98 3e
       0.059426706 0.3170364 0.28430185 0.29726434
000060 0d f5 8f bd 53 6c 5a 3e f1 14 05 3e 79 ca 87 bd
       -0.070291616 0.21330385 0.1299627 -0.066304155
000070 45 cb d5 3d 09 f4 24 b9 c5 45 2f bb b7 1f e0 bd
       0.10439161 -0.00015731169 -0.0026744467 -0.10943549
000080 cc 6a dd bd 4d 9f 4e be 83 de d6 be 1d 55 d7 be
       -0.108113855 -0.20177956 -0.41966638 -0.42057124
000090 42 bd 14 bf df 48 1c bf d9 c0 f6 be 9f ee ca 3d
       -0.58101285 -0.6104869 -0.48194006 0.099087946
0000a0 33 fa 83 bd 16 16 ad be 89 6f 5e 3e da 60 0e 3e
       -0.06444206 -0.33805913 0.21722235 0.13904133
0000b0 e1 0c b3 bd 69 78 5b 3f 7f f8 a3 3e 9d f3 26 3d
       -0.08742691 0.85730606 0.32025525 0.04075967
0000c0 94 93 4b 3f 66 8b 60 3f c3 9b 95 bd 53 51 76 3f
       0.7952206 0.87712705 -0.073051 0.9621784
0000d0 b3 9d 2c 3f 5a d8 89 3e a5 f9 1c be f5 a7 22 3e
       0.6742813 0.26922876 -0.15329607 0.15884383
0000e0 69 76 46 bd 48 4e fc 3d 19 b0 2a 3f 00 b1 81 3d
       -0.04845277 0.123196185 0.66674954 0.06332588
0000f0 3b 87 17 be 74 43 02 be 68 58 85 be b9 2e 36 bc
       -0.1479768 -0.12721044 -0.2604401 -0.011119538
000100 15 51 68 be 3c 29 5b 3f 96 62 98 be 2d 01 53 c0
       -0.2268718 0.85609794 -0.29762715 -3.2969468
000110 39 c0 20 3f 4a 9b 36 3f eb a9 7b 3e 65 08 ab 3f
       0.6279331 0.713307 0.24576537 1.3361937
000120 7c ae c2 bd b1 9e da 3e 38 f7 ec 3e 40 c2 38 3e
       -0.095059365 0.42699197 0.46282363 0.1804285
000130 b8 ae c2 3e de ab a7 3e 0a 73 8e be ce d3 8d 3d
       0.38023925 0.32748312 -0.27822143 0.06925164
000140 62 6f 13 3e 9e 16 50 bd 03 9e b7 be 15 78 07 3e
       0.14397958 -0.05080282 -0.3586274 0.13229401
000150 2e 31 16 bf 43 1b d6 bf f5 ce b3 be 02 65 81 3c
       -0.5866879 -1.672707 -0.35118833 0.015795235
000160 35 d9 ae be 14 fe b9 bd ce 75 37 be 1f 6a b2 be
       -0.3415009 -0.09081665 -0.17916033 -0.3484659
000170 66 35 c0 bd 3e 69 b7 bc bd 91 cb be 83 f6 af 3c
       -0.09385185 -0.02238905 -0.39759627 0.02147985
000180 9a 3a 8e bd dd 1b 00 3d 8d 3b b1 be 03 65 3b 3e
       -0.06944771 0.031276572 -0.34615746 0.18300252
000190 56 65 0b 3f 5f 3f 8f 3e 5b 37 6c 3e 69 33 30 3f
       0.544515 0.27978036 0.23067991 0.68828446
0001a0 50 eb 28 3f 4a b2 33 3e ce 1b 21 3f 7e fe ec 3e
       0.6598406 0.1754848 0.6293305 0.46287912
0001b0 60 ed 83 3e 3b fa 4b bd 91 2a 2a be 25 74 0a bd
       0.2576704 -0.049799185 -0.166178 -0.03380217
0001c0 df b1 bb 3d 44 bf 0c be 3e 97 b8 3d c1 a9 ba bb
       0.091647856 -0.13744837 0.09013222 -0.005696506
0001d0 2a c2 d7 3c c2 89 d5 3e 90 f8 dc 3e 4a 0c 1d 3e
       0.026337702 0.41706663 0.43158388 0.15336719
0001e0 f9 79 1a 3f 5d 7d c3 3e 2f 9f 0e 3f 59 40 24 3f
       0.60342366 0.38181582 0.55711645 0.64160687
0001f0 b5 3b b3 3e 06 b6 c2 3e 67 ea f7 3c cf 0e 81 bd
       0.3500649 0.38029498 0.030263139 -0.06301653
000200 76 3a 28 bf 0e a6 08 3f 74 49 20 3f 4f 75 bd bd
       -0.65714204 0.5337838 0.6261208 -0.092508905
000210 2e 5d a9 bd df 31 f8 3d 19 d4 7b be 13 c0 9f 3f
       -0.08269726 0.12118887 -0.24592628 1.2480491
000220 99 49 16 3f 1c 00 02 3f cc ba 01 3e 78 64 81 c0
       0.5870605 0.50781417 0.12668914 -4.0435143
000230 af 49 a3 3d 04 a4 20 3f 93 28 b8 3e 7e 77 24 3e
       0.079730384 0.6275027 0.35968456 0.16061208

module.tNet.block.0.bias f4 [8]
000000 ca a6 78 bf a2 f1 6e bf f9 2f fe 3d 9a 02 75 be
       -0.971295 -0.9333745 0.12411494 -0.23926774
000010 80 a3 a8 bf 6c 34 93 3f 5b ba b5 bf e7 d2 54 3d
       -1.3174896 1.1500373 -1.4197496 0.051958945

module.tNet.block.2.weight f4 [8, 8, 3, 3]
000000 c5 18 ad 3d bc 93 4b bd 6a 5c b3 3d d5 45 94 bd
       0.0845199 -0.049701437 0.08757861 -0.07239882
000010 5c 8d 2e be 3a 16 01 bd 46 90 9e 3d 7f 54 17 be
       -0.17046112 -0.031515338 0.07742362 -0.14778326
000020 8e 55 2a 3d 85 a5 c6 3d 00 a9 76 3e 91 24 39 3e
       0.041585498 0.09699539 0.24087906 0.18080355
000030 7b da 1d 3e cd ea 88 3e ee 0d 13 3e 86 89 a6 3c
       0.15415375 0.2674164 0.14360783 0.020329248
000040 7e 9a 32 3e dc cc a6 3d cf a5 15 3e 86 04 16 be
       0.17441747 0.081445426 0.14614032 -0.14650163
000050 5b 58 a3 3e f9 bd 63 3e cc ac 3c bd ce f4 31 3f
       0.31903347 0.22240438 -0.04606323 0.6951417
000060 b9 b2 e4 3d 4a 41 4e bf 48 c3 30 3e a8 54 13 be
       0.11166901 -0.80568373 0.17261994 -0.14387763
000070 80 cf 31 be 06 25 87 bd c9 ac 3a be f5 93 56 3f
       -0.17364311 -0.065988585 -0.18229975 0.83819515
000080 59 f2 b7 bc 0c ec 3f be 82 b2 5a bd 63 65 bf bc
       -0.022454428 -0.18742388 -0.053392895 -0.023363775
000090 16 fb d8 bc fc e5 b4 3c c9 94 ff bd a6 1c fa 3d
       -0.026486915 0.022082321 -0.124795504 0.122124955
0000a0 9d 0d 91 3f 7d e9 8e bc 0e da 12 3e 43 49 c8 3d
       1.133228 -0.01744532 0.14340994 0.097795986
0000b0 af 5d b1 3d 73 44 ef 3c 62 ae 79 bd 4f 13 48 3e
       0.08660447 0.029207444 -0.06095732 0.19538616
0000c0 20 af 57 3d 09 78 88 be 7f 08 c1 3d da a0 39 3d
       0.052657247 -0.2665408 0.094254486 0.045319416
0000d0 34 12 35 bd 76 fd 59 bd 52 37 0d 3e 7c 28 55 bc
       -0.044206813 -0.053220235 0.13790634 -0.0130101405
0000e0 88 c6 99 bd ce 5f d1 bd 8a 28 ca be 7a 9e 20 be
       -0.0750857 -0.102233514 -0.39484054 -0.15685454
0000f0 02 9d 99 bd ac de dc bd 0a 6b 54 bd d6 5a d0 bb
       -0.0750065 -0.10784659 -0.051859893 -0.0063584847
000100 bd dd bf bc 97 e1 a5 3d 9d 3e 2d be a9 b1 3e 3f
       -0.023421163 0.080996685 -0.16918416 0.7448984
000110 94 8b e9 bb 25 4e 67 be 8a c9 9f be 11 38 36 be
       -0.0071272347 -0.22588404 -0.3120845 -0.17794825
000120 e8 d0 19 bf 91 45 ad bd 7b c3 50 bd 22 72 0f be
       -0.6008439 -0.08460534 -0.050967675 -0.14008382
000130 ed fa 12 3f c9 9d 41 3e fa f4 86 be 6a b6 0f 3d
       0.5741413 0.18907847 -0.26358777 0.035086073
000140 b4 51 2c bc 52 2b 7d 3d de 6e 9d 3d 1a 90 c7 3d
       -0.010517526 0.06180889 0.07687162 0.09744282
000150 04 9d bb 3c 3b 01 c4 3d 2f dc 42 3e c6 2e 09 3d
       0.02290202 0.09570547 0.19029306 0.033491872
000160 c2 19 5f 3e 7d 5b 23 3e 38 36 ea 3e 31 6b 7a be
       0.2178717 0.15952869 0.4574449 -0.24454953
000170 b7 10 03 bb 4c fd 05 be a5 ae 91 be 08 df 40 3f
       -0.0019998976 -0.13084906 -0.28453556 0.7534032
000180 fe 4d 21 3e 1d de 23 be 22 a3 e4 3d 43 e4 78 b9
       0.15752408 -0.16002698 0.111639276 -0.00023736157
000190 ff 52 5d be 0a c7 ac be 08 a4 10 bd cc 09 7d 3f
       -0.21613692 -0.33745605 -0.035312682 0.98843074
0001a0 96 f8 24 be fa a2 e3 bc 0a 0e b7 bc 72 96 14 be
       -0.16110453 -0.027787674 -0.022345562 -0.14510515
0001b0 74 c3 82 be d5 94 c3 3d e4 5a 74 be 28 f3 84 be
       -0.25539744 0.09549872 -0.23862797 -0.25966763
0001c0 9e b1 31 3f cb aa 85 bd 79 8e a5 be a4 a4 4b 3d
       0.6941165 -0.06526717 -0.3233526 0.04971756
0001d0 2a 29 9a be a2 31 e2 bd 10 aa 7d bd df 57 92 be
       -0.3010953 -0.11044623 -0.061929762 -0.28582665
0001e0 90 7b 4c be 4a f3 64 be 94 f1 9e bd ae 78 d2 bd
       -0.1996901 -0.22358432 -0.07760921 -0.10276924
0001f0 56 50 21 be 11 fb 91 bd 87 5d 3b be b7 3d c8 be
       -0.15753302 -0.07127965 -0.18297397 -0.39109585
000200 04 a6 20 bf e6 56 63 be fb 6d 3b bf ca 89 57 bf
       -0.6275332 -0.22201118 -0.7321469 -0.84194624
000210 7f 47 13 bf ab 65 22 bf 7e f3 3e bf ac c6 f7 bd
       -0.5753097 -0.63436383 -0.7459029 -0.120984405
000220 f3 3b 5b be 31 95 ea 3c 9c 24 bc bd b6 35 4c 3f
       -0.21409588 0.028635593 -0.0918667 0.79769456
000230 f3 6c b0 3d ed 10 2c be bb 54 9c be cd e3 a7 39
       0.086145304 -0.16803332 -0.30533394 0.00032022447
000240 eb d5 2d 3f fb bf cd 3e db ee 92 3e af 76 75 3e
       0.6790454 0.40185532 0.28697857 0.23971055
000250 1f ac ba bf e0 8a eb bd d3 e9 69 3e 35 bf 6b be
       -1.4583777 -0.11501098 0.22843103 -0.23022158
000260 42 ff b1 bd 19 2e cc bd dc 7b 0b be 33 08 89 bd
       -0.08691265 -0.0996973 -0.13621467 -0.06691017
000270 f5 80 01 be ba ec b2 be e2 69 32 be 7a 91 65 bd
       -0.1264685 -0.34946233 -0.17423204 -0.05604694
000280 7a 82 3a be 46 e7 ad bd fe cb 41 bd 0a 5d 31 3e
       -0.18213835 -0.084913775 -0.047313683 0.17320648
000290 5b bb c6 bd 66 d0 c9 bc e5 73 4f be 52 6d 63 be
       -0.09703704 -0.024635505 -0.20259054 -0.22209671
0002a0 66 0a 2e 3f 45 c1 15 3f 9d 1e 20 3f a1 10 d2 3e
       0.67984617 0.5849803 0.6254671 0.41028312
0002b0 a5 06 b4 3e 64 16 21 bd d4 c1 f5 3e 06 6a f0 bf
       0.3516132 -0.039327994 0.47999442 -1.8782356
0002c0 95 0f 45 3e d1 45 84 3e 63 9d ad 3e 6f 26 8e bc
       0.19244225 0.25834516 0.3390914 -0.017352311
0002d0 0d a1 60 be e6 04 c8 3e a5 20 2e 3f a1 56 ef 3e
       -0.21936436 0.39066237 0.6801856 0.4674578
0002e0 39 59 5a bf b6 ff 91 3f d3 08 31 bd 2f 25 d1 3e
       -0.8529239 1.1406162 -0.043221306 0.4084868
0002f0 15 29 d3 3e 79 65 03 3e e4 15 7e 3d 69 bc 82 3d
       0.4124228 0.12831677 0.062032595 0.06383593
000300 07 dd 99 3e 48 8e e0 3e b4 94 1d 3e d0 2c 22 3e
       0.30051443 0.43858552 0.15388757 0.15837407
000310 6e ff 5a 3e 17 f1 37 3e b9 2f 1d be 93 fc a2 be
       0.21386501 0.17963062 -0.15350236 -0.31833324
000320 04 3d c8 be da 76 44 be fc 49 eb be 44 f0 77 be
       -0.3910905 -0.19185963 -0.45954883 -0.24212748
000330 aa 16 06 bf 3c 54 d7 be 97 2e 97 be 7e 22 f2 3a
       -0.5237833 -0.42056453 -0.29527733 0.0018473414
000340 44 1a 28 3e 75 1d 16 be d2 9e b2 3e 3a a8 d2 bf
       0.1641627 -0.14659674 0.34886795 -1.6457589
000350 12 07 8f bc 00 ad b9 3e ea 37 36 3f 63 19 06 3e
       -0.017459426 0.362648 0.7117907 0.13095622
000360 5d 86 f7 3e 63 51 1d 3e ec 83 83 3c 8d cf f8 3d
       0.483447 0.15363078 0.016054116 0.12148962
000370 6f ab 44 3f 7b c2 e8 be 9c 21 68 3d 46 e3 8d be
       0.76824087 -0.45460877 0.056672677 -0.27712458
000380 07 2f 17 bf 82 d3 46 3e 15 ea c3 3e dd ae 91 bd
       -0.59056133 0.19416621 0.38264528 -0.07113431
000390 db 1a c8 3d 12 1c 8b 3e 3e d3 d9 bc c2 0b 56 be
       0.09770747 0.27169853 -0.026589986 -0.20902923
0003a0 73 31 8b be 92 04 a3 be bf 80 cf bd 0c c2 b4 3d
       -0.27186164 -0.31839424 -0.10131978 0.08826074
0003b0 68 7c 08 be 8c f0 10 3f c8 85 4c bf 2e 05 b7 be
       -0.13328707 0.56617045 -0.79891634 -0.3574614
0003c0 48 20 cf 3e 6f 24 96 3d e7 23 54 be fc 13 b8 be
       0.40454316 0.07331168 -0.2071682 -0.35952747
0003d0 0f 06 4e bf d8 ed bd 3c 9c f9 89 bf 7a 4b bc 3f
       -0.80477995 0.023184702 -1.07793 1.4710534
0003e0 04 d7 f2 bd c2 26 1a 3e 04 59 01 bd dc 74 3f 3f
       -0.11857417 0.15053847 -0.031579033 0.7478769
0003f0 ce 86 46 3f 5a e9 68 3e a7 2d 40 bd 73 70 c5 be
       0.77549446 0.22745267 -0.046918537 -0.38562354

module.tNet.block.2.bias f4 [8]
000000 31 e2 49 bf 97 9f 8f bd 7e 06 eb 3d 94 21 2d bd
       -0.78860766 -0.07012861 0.11475848 -0.04226835
000010 85 56 c3 bf 87 42 0d 3f 1b 27 bc bf 0b 50 7a bf
       -1.5260779 0.5517964 -1.4699434 -0.97778386

module.tNet.block.4.weight f4 [8, 8, 3, 3]
000000 03 62 e5 be 99 3b c4 be aa db e6 be ea 06 13 bf
       -0.4480134 -0.3832672 -0.45089465 -0.57432425
000010 f4 41 fc bd 7b 7c 1b bf 51 10 8b be 8a 00 d2 be
       -0.12317267 -0.6073682 -0.27160886 -0.41016036
000020 44 bc a6 be 98 a0 f2 3d 7d 4b 19 3d 98 34 c5 3e
       -0.3256551 0.11847037 0.037425507 0.38516688
000030 e9 f6 83 3e 29 58 5a be 9f 3a cc 3e e1 ea c5 3e
       0.25774315 -0.21322693 0.39888474 0.3865576
000040 8b 06 b2 3e 33 94 f4 3e 49 3a e2 bd 81 4b ff bd
       0.34770617 0.47769317 -0.11046273 -0.12465573
000050 ea cd bf bd b1 79 13 be 3c db 56 3f d0 cb ac be
       -0.09365447 -0.1440189 0.83928275 -0.33749247
000060 f7 9e c4 bc 25 62 fa be f6 83 82 be 0f 75 15 3e
       -0.024001582 -0.48903003 -0.25491303 0.14595436
000070 1f 66 2a 3e 29 41 d6 3d ed 08 88 3e 3a f3 4c c0
       0.16640519 0.10461647 0.2656931 -3.2023454
000080 a1 7b 11 3e 50 44 25 3e d8 de 61 3d 16 0d 8b 3d
       0.14207317 0.1613934 0.05514416 0.06789605
000090 4a 92 90 be 35 33 02 be eb 68 24 be 35 5e 00 bf
       -0.2823661 -0.12714846 -0.16055648 -0.5014375
0000a0 2c d3 12 be 20 fd c1 be b5 f8 d1 be 5e 51 c1 be
       -0.14338368 -0.37888432 -0.4101006 -0.3775739
0000b0 77 b9 d0 be 9a 1d b9 bc 97 c4 02 3b 20 c1 08 3e
       -0.40766498 -0.022597123 0.0019953602 0.13354921
0000c0 90 82 0e ba 9e 06 6d 3f 79 88 66 bd 62 1c 1f bd
       -0.00054363254 0.9258822 -0.056282494 -0.038845427
0000d0 64 81 94 3e c1 df 34 be 78 1d 23 bb 06 7e b0 3b
       0.29004967 -0.1766348 -0.002488939 0.005386117
0000e0 ef c4 2c bd 45 18 87 3d 0e b5 7c be 5c 37 cf bd
       -0.042179998 0.06596426 -0.24678442 -0.10117981
0000f0 7e 60 54 3b f9 c7 6c be 3a 13 87 be 01 36 8e 3b
       0.0032406147 -0.23123159 -0.26381856 0.004339934
000100 e7 72 0d 3d 34 12 74 3d e7 ab 09 3e 68 b9 47 bd
       0.034533408 0.059587672 0.13444482 -0.0487608
000110 19 96 a0 3e 03 b0 4b 3e 80 cf aa 3e 82 af f8 3d
       0.31364515 0.19891362 0.33361435 0.121428505
000120 a4 20 1e bc ad 31 cc 3c 7a bf cb bd ae 50 ed bd
       -0.009651337 0.024926031 -0.09948631 -0.11587654
000130 f8 66 16 3f a4 63 a2 bd 6a 17 0e be 6a 69 3a bd
       0.5875087 -0.07929161 -0.1387612 -0.045510687
000140 3f 49 1a ba 23 97 eb 3c fd 8e 07 3e 6e e1 a1 3d
       -0.00058855483 0.028758591 0.1323814 0.079043254
000150 56 8f 53 bd 75 ef 55 3f 1e 44 54 3d 41 1e a7 ba
       -0.051650368 0.8356851 0.051822774 -0.0012750105
000160 10 0d 09 bd 37 52 ba bd 29 42 98 bd 9a 81 b3 bd
       -0.033459723 -0.090977125 -0.07434494 -0.08764954
000170 a9 b2 db 3c 48 ed a9 bd fe da 22 bf 35 1e 0e be
       0.02681859 -0.08297211 -0.63615406 -0.1387871
000180 10 11 b9 bc 28 5f 0d bc 4c ac 6f bd 94 85 0e 3b
       -0.022591144 -0.008628644 -0.058513924 0.00217471
000190 a9 7a f5 bd 8f 08 ea bc 89 13 69 3d c1 9d 7a 3e
       -0.11986286 -0.028568534 0.056903396 0.24474241
0001a0 a2 5a 36 3d 09 e9 2a 3e a8 cc d4 3d c7 5b f6 3d
       0.044520028 0.16690458 0.103905976 0.12029224
0001b0 22 ec 2a be 1d 52 a9 be 0a 17 5d bf 7a 45 b5 3d
       -0.1669164 -0.3307046 -0.8636328 0.08851142
0001c0 67 d4 29 bf 41 35 57 3e 9d c6 73 3d 1e 74 a9 bd
       -0.66339725 0.21016409 0.059515584 -0.08274101
0001d0 21 ac 2a 3e 74 c6 09 3f 39 d5 8c 3e 8c 22 0f 3f
       0.16667224 0.5381844 0.27506426 0.5591209
0001e0 2d 89 44 3e 6e 5d be be 3b 24 b0 3e 3c c6 23 bd
       0.19192953 -0.37180656 0.34402642 -0.039983973
0001f0 30 67 83 be 62 cb bb bd 9e 0d ab be a1 f4 b5 be
       -0.25664663 -0.091696516 -0.33408827 -0.355382
000200 1d 7b f6 be b8 28 0f be 4f fb c0 3f 38 88 81 be
       -0.48140803 -0.13980377 1.5076693 -0.2529924
000210 b4 7c 67 be fb da 5d be bb c4 7f be 92 65 ce bd
       -0.22606164 -0.21665566 -0.2497739 -0.10077967
000220 b9 bc 2f 3e e8 b6 5c bd ea 1c 5a be 40 08 bc 3f
       0.17161836 -0.05388537 -0.21300092 1.4690018
000230 66 9d 1c 3e 61 8d 95 be eb 25 94 bd d9 f9 f0 bc
       0.15294418 -0.29209426 -0.07233795 -0.029416012
000240 b4 e3 73 bb c2 01 47 be ad 5f bb bc 0b 68 1c be
       -0.003721458 -0.19434264 -0.02287277 -0.15274064
000250 0f b7 af 3e dc 18 5e be 65 56 6f bc f5 f1 32 be
       0.3431935 -0.2168917 -0.014608 -0.17475112
000260 d2 dc 46 bd ec ef 45 3d ef d0 a2 bd 54 17 ed bd
       -0.048550434 0.04832451 -0.07950007 -0.11576715
000270 0a 33 74 3d ea 9a e7 3e f0 b7 30 bd 6c 2e bd 3d
       0.059618987 0.45235378 -0.043144166 0.0923737
000280 df f0 1e 3d 57 4f b1 3c 69 a1 03 bf 0d 7b 50 be
       0.03880393 0.021644277 -0.5141817 -0.2035944
000290 18 b4 10 bf 43 81 72 be db 9d 88 3d 0a 7c 43 be
       -0.565248 -0.23682122 0.066707335 -0.19090286
0002a0 c3 3e b2 be 06 d1 f0 bd d9 f4 aa be 99 48 a8 be
       -0.34813508 -0.11758618 -0.3338993 -0.32867888
0002b0 89 0c e8 3c 04 9d 6d bd a1 3a 9c be 1d d2 45 be
       0.02832629 -0.05801107 -0.3051348 -0.19318433
0002c0 90 b8 23 be 43 30 ce be a1 a0 82 be 6a 48 5b be
       -0.15988374 -0.40271196 -0.25513175 -0.21414343
0002d0 a5 8e 61 be 49 fd 90 be 40 32 8d ba 7e 40 20 bf
       -0.22027071 -0.2831824 -0.0010772422 -0.6259841
0002e0 3e 8a cb bf 4e e3 10 bf 46 ad 84 bf 38 95 73 bf
       -1.5901563 -0.5659684 -1.0365379 -0.95149565
0002f0 dd a6 40 bf 91 81 cf 3e 55 57 43 3e 28 68 e9 3e
       -0.75254613 0.4052854 0.19076283 0.45587277
000300 2d 5a 89 3e 33 58 61 be 01 6e 6f 3e b5 c7 44 bc
       0.2682661 -0.22006302 0.23381807 -0.0120105045
000310 3f 37 80 be ba ee c2 bc 39 45 19 be 4f ba 80 be
       -0.2504215 -0.023795474 -0.14967813 -0.25142142
000320 c6 28 55 be 29 92 77 be de 78 bf 3f cf 5c 88 be
       -0.20816335 -0.2417685 1.4958761 -0.26633307
000330 a7 64 ec bc 36 73 0e be b3 79 15 be 4d 40 5a bd
       -0.028856589 -0.13911137 -0.14597206 -0.05328398
000340 ab c0 66 3e 3c 9d c0 bd 88 87 78 3e 5e 7b f0 3f
       0.22534434 -0.0940499 0.24270451 1.8787649
000350 53 1e 4b 3e 66 3f 73 be 04 2c 4d 3d 46 a2 8a be
       0.19835787 -0.23754653 0.050090805 -0.2707693
000360 5b 7c e6 bd c3 66 a3 be d6 e4 bd be 92 c9 19 bd
       -0.11254188 -0.31914338 -0.3708865 -0.037545748
000370 08 2b 02 3f 03 56 1d be a3 e4 ba 3c 23 ad 69 be
       0.5084691 -0.15364842 0.0228141 -0.22819953
000380 51 2b 3e be 3d ca 18 3f fd 18 4a 3e d2 57 44 3f
       -0.18571211 0.5968359 0.19736095 0.76696503
000390 6f 0c cd 3d cc 08 97 3e c3 bf 16 3e 1d 24 a4 3e
       0.10012137 0.294989 0.14721589 0.32058802
0003a0 23 f6 9e 3d 67 f0 25 3e 5f 43 b0 3d 55 05 7c 3d
       0.077617906 0.16204987 0.086066 0.061528523
0003b0 b2 ea 08 3e 62 1b 85 bc 15 d8 70 3f 3d 83 19 3e
       0.13370779 -0.016248409 0.94079715 0.1499147
0003c0 29 76 2c 3d 03 ff 29 3e 5e 0d 12 3e 35 01 be be
       0.042104874 0.16601186 0.14262912 -0.37110296
0003d0 df ab 5d be ff 99 83 be 1c f5 c8 be 5f d1 f8 bf
       -0.21647595 -0.25703427 -0.39249504 -1.9438895
0003e0 96 5d d1 be 79 fe c3 be 70 fb c9 be 30 28 c2 be
       -0.40891713 -0.38280085 -0.39449644 -0.37921286
0003f0 52 72 2c 3e 30 73 63 3e cf 01 29 3e 51 49 4e 3d
       0.16840485 0.2221191 0.16504596 0.05036289

module.tNet.block.4.bias f4 [8]
000000 e9 04 63 ba be 61 97 3e c9 f8 c5 3d ca 20 a5 be
       -0.00086600945 0.2956676 0.09666593 -0.3225158
000010 c2 92 e1 be 77 37 f8 3d 12 db 06 3f 23 18 12 3f
       -0.4405728 0.12119954 0.52678025 0.5706808

module.tNet.block.6.weight f4 [1, 8, 3, 3]
000000 5d df 42 bd f2 9c 32 bd 87 08 a2 bd cd d3 75 bd
       -0.047576297 -0.043606706 -0.07911783 -0.060016442
000010 57 dc 90 be dd 81 bc bd bc 88 53 bd 02 a3 31 bd
       -0.28293106 -0.09204457 -0.051644072 -0.043368347
000020 65 67 89 bd 62 77 7d ba 52 7f a1 3c 5b d9 c7 3b
       -0.06709174 -0.00096689735 0.019714031 0.006098909
000030 d4 e2 c0 3b 8a 53 a9 3e 97 f4 c2 3c 24 5b 71 3c
       0.005886415 0.33071548 0.02379827 0.014731202
000040 6d 01 ea 3c a9 b4 85 3c 22 c6 4e 3d 91 9d 51 3d
       0.028565133 0.016321497 0.050481923 0.051175658
000050 f9 f8 2f 3d e9 12 22 3d b5 fd 00 3f f6 ca 6b 3d
       0.04296205 0.039568815 0.50387126 0.057566606
000060 74 be fe 3c e5 0d 3c 3d 62 fa ee 3c fa df 95 bd
       0.031096675 0.04591169 0.029172126 -0.07318111
000070 50 a7 17 bd 73 e6 d8 bd b2 59 b1 bc cc 40 41 be
       -0.037024796 -0.1059083 -0.021649215 -0.18872374
000080 7a 4e 37 bd b7 9f c6 bd ee 6a 1c bd 46 85 ba bd
       -0.044752575 -0.09698432 -0.038187914 -0.09107451
000090 cc 4d fc bc fa 60 09 bd 9e ee 0a bd 44 0d cc bc
       -0.030798815 -0.03353975 -0.03391897 -0.02490867
0000a0 97 25 a8 3f fc b1 17 bd 4c b6 d9 bc 6e 86 0c bd
       1.3136472 -0.037034974 -0.026576184 -0.03430789
0000b0 70 16 0f bd f3 3b 19 3d 72 40 c3 3c 7e 22 a4 3c
       -0.034933507 0.037410688 0.02383444 0.020035978
0000c0 56 d0 d1 3c 83 12 82 3d 85 a5 bc 3c 9a 84 f8 3c
       0.025612038 0.06351187 0.023028145 0.030336667
0000d0 61 59 9c 3c 09 08 6a 3c 0a 23 6f 3d 87 67 24 3d
       0.019085588 0.014284142 0.058383025 0.040137794
0000e0 ce ed 55 3d ba 11 e8 3c ed d5 86 3d 25 dc 10 3d
       0.05222874 0.028328765 0.06583772 0.035366196
0000f0 71 9e d5 3c 13 33 b4 3c 81 ac ec 3c 98 17 86 3c
       0.026076527 0.02199701 0.02889085 0.016368672
000100 13 0e 68 3d 20 04 15 3d 3a 83 17 3d c0 e1 ad 3e
       0.056654047 0.036380887 0.03699038 0.33961296
000110 af 60 b9 3d 04 02 d3 ba f1 3c a0 3d 61 75 0c 3d
       0.09051644 -0.0016098623 0.07824124 0.03429163

exp_avg f4 [3, 1, 3, 3]
000000 be 01 87 38 4d 1f 87 38 87 27 88 38 ca 5c 84 38
       6.437626e-05 6.443132e-05 6.492348e-05 6.311534e-05
000010 90 53 84 38 a9 cb 85 38 4b ce 84 38 11 08 85 38
       6.309815e-05 6.379869e-05 6.3326755e-05 6.343437e-05
000020 a6 25 86 38 f8 6d f0 b9 9e b7 f0 b9 67 2a f0 b9
       6.3966305e-05 -0.000458583 -0.00045913173 -0.0004580796
000030 a3 c8 f0 b9 da fb f0 b9 2f 3e f0 b9 dc 45 ef b9
       -0.00045925853 -0.0004596401 -0.00045822698 -0.00045637682
000040 1f 5e ef b9 1f ba ee b9 77 a4 b2 ba 1c ae b3 ba
       -0.00045655758 -0.00045533568 -0.0013629337 -0.0013708505
000050 7c a3 b3 ba 05 a8 b9 ba 8f c7 ba ba 76 e9 b9 ba
       -0.0013705338 -0.0014164454 -0.0014250147 -0.0014183957
000060 da 8c bf ba 22 bf c0 ba 4a 2c be ba
       -0.0014614121 -0.00147054 -0.0014509049

exp_avg_sq f4 [3, 1, 3, 3]
000000 f5 2c 19 34 1a 1b 19 34 e8 e3 1a 34 81 c9 16 34
       1.426559e-07 1.4259095e-07 1.442528e-07 1.4043145e-07
000010 56 bb 16 34 ce 08 19 34 82 ac 16 34 f2 dc 16 34
       1.4037991e-07 1.4252439e-07 1.4032597e-07 1.4050218e-07
000020 88 1a 19 34 fe 49 84 37 40 a1 84 37 af 28 84 37
       1.4258887e-07 1.5770082e-05 1.5810714e-05 1.5754571e-05
000030 37 b7 84 37 6b fe 84 37 6b 5e 84 37 7c ad 83 37
       1.5820942e-05 1.5854099e-05 1.5779593e-05 1.5697202e-05
000040 62 df 83 37 8d 59 83 37 ee 6e 86 38 0b 3a 88 38
       1.5720438e-05 1.5658117e-05 6.41028e-05 6.495797e-05
000050 43 af 89 38 14 9a 94 38 7f d7 96 38 09 95 96 38
       6.565314e-05 7.085889e-05 7.192697e-05 7.180317e-05
000060 55 d7 9e 38 99 ba a0 38 f6 04 9d 38
       7.574136e-05 7.664151e-05 7.4872674e-05

exp_avg f4 [3]
000000 3a bb 11 3a 18 b0 c9 ba 90 81 07 bb
       0.000555921 -0.0015387563 -0.002067659

exp_avg_sq f4 [3]
000000 04 96 30 37 29 91 f2 38 f8 d5 20 39
       1.0525346e-05 0.000115664974 0.00015338499

exp_avg f4 [3, 3, 3, 3]
000000 1a 7a 25 b6 fe e3 25 b6 b7 61 25 b6 6e 97 26 b6
       -2.4657988e-06 -2.4719625e-06 -2.4643793e-06 -2.4824071e-06
000010 aa 01 27 b6 11 7f 26 b6 53 7e 26 b6 8b e8 26 b6
       -2.4885908e-06 -2.480989e-06 -2.4809458e-06 -2.4871285e-06
000020 11 66 26 b6 9a 42 00 b8 ac 62 00 b8 88 3c 00 b8
       -2.4795338e-06 -3.0579606e-05 -3.0609473e-05 -3.0573952e-05
000030 48 6b 00 b8 91 8b 00 b8 b2 65 00 b8 b1 15 00 b8
       -3.061749e-05 -3.064756e-05 -3.061229e-05 -3.053778e-05
000040 f1 35 00 b8 56 10 00 b8 4b 22 95 34 15 81 95 34
       -3.0567815e-05 -3.0532792e-05 2.7778364e-07 2.7847332e-07
000050 23 33 95 34 00 fb 95 34 1b 4e 96 34 c4 fa 95 34
       2.779062e-07 2.793604e-07 2.7996506e-07 2.793587e-07
000060 79 fa 9a 34 b5 5a 9b 34 a0 0c 9b 34 d7 aa 92 b7
       2.8866978e-07 2.8936998e-07 2.8880186e-07 -1.748411e-05
000070 d2 30 92 b7 8e 68 91 b7 36 a9 8a b7 b6 27 89 b7
       -1.742729e-05 -1.7334034e-05 -1.6529677e-05 -1.6350165e-05
000080 67 10 88 b7 cd be 85 b7 81 ac 83 b7 55 ee 82 b7
       -1.6220101e-05 -1.5943684e-05 -1.5696745e-05 -1.560819e-05
000090 ca 94 09 ba e1 13 0a ba 7f 38 0a ba 2c 50 0c ba
       -0.00052483066 -0.00052672444 -0.0005272701 -0.0005352523
0000a0 37 0d 0d ba cc 24 0d ba 75 2d 0e ba f6 0c 0f ba
       -0.00053806923 -0.00053842063 -0.0005423644 -0.00054569484
0000b0 27 ff 0e ba 7f 5e 8d b6 83 9f 93 b6 6e 8e 93 b6
       -0.0005454891 -4.2131282e-06 -4.399511e-06 -4.3975224e-06
0000c0 d5 81 96 b6 fb 8f 98 b6 64 07 98 b6 60 99 82 b6
       -4.485463e-06 -4.5467145e-06 -4.5308134e-06 -3.892157e-06
0000d0 51 e9 83 b6 22 58 82 b6 65 95 00 b8 8a e6 00 b8
       -3.931266e-06 -3.884562e-06 -3.0656713e-05 -3.0732284e-05
0000e0 34 a9 00 b8 4c 58 01 b8 38 b0 01 b8 c9 77 01 b8
       -3.067516e-05 -3.083823e-05 -3.0920113e-05 -3.0867555e-05
0000f0 b6 cb 01 b8 dc 28 02 b8 33 f2 01 b8 95 28 0a ba
       -3.0945717e-05 -3.103247e-05 -3.0981562e-05 -0.00052703294
000100 6d 4c 0a ba 04 22 0a ba bf 51 0a ba 4e 75 0a ba
       -0.00052756706 -0.0005269351 -0.00052764633 -0.0005281762
000110 82 4a 0a ba 09 f5 09 ba 30 18 0a ba 62 ed 09 ba
       -0.0005275385 -0.00052626483 -0.00052678864 -0.0005261508
000120 91 77 82 36 1f dd 82 36 1d a2 82 36 1c 2b 83 36
       3.8882213e-06 3.900044e-06 3.8931744e-06 3.909123e-06
000130 11 91 83 36 75 55 83 36 41 61 89 36 8a c7 89 36
       3.920992e-06 3.9140527e-06 4.09424e-06 4.1061476e-06
000140 5a 8b 89 36
       4.099141e-06

exp_avg_sq f4 [3, 3, 3, 3]
000000 1d 46 29 2f 3e 25 2a 2f 8b 12 29 2f b7 8f 2a 2f
       1.539537e-10 1.5474641e-10 1.5377048e-10 1.5512468e-10
000010 40 70 2b 2f a4 5b 2a 2f 9e 42 29 2f 98 21 2a 2f
       1.5592239e-10 1.5493967e-10 1.5394128e-10 1.5473345e-10
000020 f5 0e 29 2f 18 cc 18 33 5b 1f 19 33 76 ce 18 33
       1.5375774e-10 3.557588e-08 3.5651606e-08 3.5578033e-08
000030 2b 48 19 33 b3 9b 19 33 0c 4b 19 33 a4 c0 18 33
       3.5688725e-08 3.5764696e-08 3.5691343e-08 3.5565463e-08
000040 fa 13 19 33 cc c3 18 33 9f 8e 1a 2c f2 3e 1b 2c
       3.5641257e-08 3.5568334e-08 2.1963887e-12 2.2061766e-12
000050 f3 a0 1a 2c 72 3a 1c 2c e0 e5 1c 2c 53 44 1c 2c
       2.197406e-12 2.2201377e-12 2.229654e-12 2.220686e-12
000060 ec 0a 1f 2c 9a be 1f 2c d1 1d 1f 2c f3 af d8 31
       2.2601322e-12 2.2701064e-12 2.261181e-12 6.3064305e-09
000070 a1 98 da 31 39 fa da 31 f7 7c e0 31 38 9b e3 31
       6.361987e-09 6.373082e-09 6.533465e-09 6.624216e-09
000080 01 2d e4 31 76 31 e9 31 ee 3c ed 31 d7 5a ed 31
       6.6407897e-09 6.7868156e-09 6.9045347e-09 6.907935e-09
000090 cc 2b fe 36 5d 67 ff 36 a2 f6 ff 36 ac 6f 04 37
       7.5748885e-06 7.6116253e-06 7.628304e-06 7.893814e-06
0000a0 ed 87 05 37 00 af 05 37 67 44 08 37 ef ad 09 37
       7.959065e-06 7.968163e-06 8.122158e-06 8.206333e-06
0000b0 fa 85 09 37 ab c1 cb 30 5d 64 d9 30 cd bf d9 30
       8.19703e-06 1.4825238e-09 1.5817353e-09 1.5843341e-09
0000c0 ef 34 df 30 e1 3e e5 30 e0 04 e4 30 54 6e b6 30
       1.624043e-09 1.6679814e-09 1.6590569e-09 1.32736e-09
0000d0 5a 85 bb 30 28 c4 b6 30 db 8a f2 32 8f a4 f3 32
       1.3643942e-09 1.3297994e-09 2.8235652e-08 2.8363756e-08
0000e0 a9 32 f2 32 c9 b4 f3 32 e4 d1 f4 32 24 64 f3 32
       2.8195545e-08 2.8371135e-08 2.8500786e-08 2.8334462e-08
0000f0 e5 07 f2 32 b1 28 f3 32 30 c0 f1 32 85 13 bf 37
       2.8176098e-08 2.8307428e-08 2.814349e-08 2.2778064e-05
000100 c3 7b bf 37 1e 16 bf 37 b9 b1 bf 37 23 1a c0 37
       2.2826605e-05 2.2779273e-05 2.2851733e-05 2.2900354e-05
000110 03 b4 bf 37 51 0c bf 37 4b 74 bf 37 70 0e bf 37
       2.2852799e-05 2.277471e-05 2.2823127e-05 2.2775697e-05
000120 e6 25 6d 30 f3 49 6e 30 4c 56 6d 30 88 1c 70 30
       8.6273955e-10 8.6688984e-10 8.6342733e-10 8.7352037e-10
000130 6d 44 71 30 3b 4e 70 30 6a 76 77 30 6a a5 78 30
       8.777253e-10 8.7422664e-10 9.0026353e-10 9.045694e-10
000140 80 aa 77 30
       9.010037e-10

exp_avg f4 [3]
000000 ca 20 12 b8 ca 73 a2 b9 d7 9f 13 ba
       -3.483965e-05 -0.00030985317 -0.0005631423

exp_avg_sq f4 [3]
000000 88 4c 08 33 77 bf 0f 36 f0 ac 8c 37
       3.1734572e-08 2.1420108e-06 1.676983e-05

exp_avg f4 [3, 3, 1, 1]
000000 f7 d7 1b 37 3f e1 c8 b7 ed 1a ec 39 8d 03 d5 b7
       9.289003e-06 -2.3946746e-05 0.0004503349 -2.5393232e-05
000010 ad 7b a0 b7 ed 8d 3b ba 40 14 a6 b8 7b dc 7a b8
       -1.9131077e-05 -0.00071546325 -7.919269e-05 -5.9809983e-05
000020 5c fe 12 bb
       -0.0022429442

exp_avg_sq f4 [3, 3, 1, 1]
000000 e8 c0 13 34 b8 ee fb 33 a6 44 e4 39 62 8f 79 32
       1.3760621e-07 1.1731521e-07 0.00043538696 1.4526309e-08
000010 4a b7 24 32 55 3a 0d 38 72 3b 25 34 bf c9 b8 33
       9.5877315e-09 3.3671346e-05 1.5388449e-07 8.604865e-08
000020 c5 6f 9c 39
       0.00029837913

exp_avg f4 [3]
000000 9d 73 6a 39 f1 a2 99 b9 9f c7 6f ba
       0.00022359048 -0.00029303835 -0.00091468723

exp_avg_sq f4 [3]
000000 30 76 03 38 0b 12 5c 36 2c 79 01 38
       3.1342905e-05 3.2793057e-06 3.0868847e-05

exp_avg f4 [1, 3, 1, 1]
000000 22 a2 c7 b8 19 66 42 b9 de 78 6a bb
       -9.519259e-05 -0.00018539316 -0.003577761

exp_avg_sq f4 [1, 3, 1, 1]
000000 8e 89 aa 35 89 69 cd 35 70 27 31 3a
       1.2706021e-06 1.5304405e-06 0.0006757891

exp_avg f4 [8, 2, 3, 3]
000000 8b 8f 21 39 ca 4f 21 39 00 5e 21 39 13 24 21 39
       0.0001540763 0.0001538388 0.00015389174 0.00015367595
000010 b3 cf 20 39 06 de 20 39 92 18 21 39 a4 c4 20 39
       0.00015336163 0.00015341499 0.0001536331 0.00015332043
000020 02 d3 20 39 5c ff dc 37 fe cb d6 37 f3 b0 de 37
       0.00015337396 2.6344955e-05 2.560578e-05 2.654686e-05
000030 09 0f ce 37 76 ab c4 37 4f 18 d1 37 37 7f dd 37
       2.4564115e-05 2.3444863e-05 2.4926061e-05 2.6404492e-05
000040 ce 56 d8 37 8b c6 e0 37 b3 6f a0 ba 48 07 a1 ba
       2.5789628e-05 2.6795335e-05 -0.001224032 -0.0012285495
000050 60 da a0 ba fa f6 a0 ba 37 91 a1 ba 0b 63 a1 ba
       -0.0012272112 -0.0012280636 -0.0012326603 -0.0012312842
000060 da d9 a0 ba 81 73 a1 ba 41 45 a1 ba b4 b7 88 b9
       -0.0012271956 -0.0012317748 -0.0012303964 -0.0002607681
000070 54 0a 89 b9 02 ea 88 b9 1d 09 89 b9 eb 45 89 b9
       -0.0002613837 -0.0002611429 -0.00026137466 -0.0002618277
000080 d3 0c 89 b9 63 34 88 b9 51 86 88 b9 22 3d 88 b9
       -0.0002614023 -0.00025978973 -0.00026040015 -0.0002598549
000090 15 f6 c7 b7 32 d2 c7 b7 a0 36 bb b7 48 68 ed b7
       -2.383724e-05 -2.3820528e-05 -2.2317574e-05 -2.8301161e-05
0000a0 22 5a ed b7 fa e3 df b7 13 29 ed b7 b8 1a ed b7
       -2.8294573e-05 -2.6689831e-05 -2.8271728e-05 -2.8265044e-05
0000b0 04 a5 df b7 fb e0 3b b7 0e 5f 38 b7 5a 1a 32 b7
       -2.6660513e-05 -1.1198451e-05 -1.0989386e-05 -1.0615762e-05
0000c0 00 e6 52 b7 ba a8 4f b7 9c ab 49 b7 71 27 54 b7
       -1.2570526e-05 -1.2377446e-05 -1.20204895e-05 -1.2645368e-05
0000d0 98 2d 51 b7 21 fc 4a b7 6c 92 d3 b8 f7 93 d6 b8
       -1.2467986e-05 -1.2098842e-05 -0.00010088537 -0.00010231876
0000e0 a2 51 d6 b8 b9 67 d9 b8 b2 d7 dc b8 5c 90 dc b8
       -0.000102195205 -0.00010366686 -0.00010530594 -0.000105173065
0000f0 5e 7c d6 b8 9d cc d9 b8 b5 86 d9 b8 87 7e f2 b7
       -0.000102274804 -0.000103854785 -0.000103724575 -2.8907567e-05
000100 ba 6f 00 b8 b7 67 f2 b7 2b dd 03 b8 6d 54 11 b8
       -3.062163e-05 -2.8896944e-05 -3.1438813e-05 -3.464932e-05
000110 fd 85 f7 b7 b4 b0 e7 b7 29 dd ec b7 15 3b d9 b7
       -2.9507088e-05 -2.761963e-05 -2.8236378e-05 -2.5895928e-05
000120 ae f2 90 b9 8a 9e 91 b9 dc a7 91 b9 df ff 90 b9
       -0.0002764663 -0.00027774676 -0.0002778162 -0.0002765646
000130 ec b4 91 b9 18 be 91 b9 29 af 91 b9 ad 5e 92 b9
       -0.00027791352 -0.00027798186 -0.0002778706 -0.0002791783
000140 c9 67 92 b9 45 3f 55 b8 6f 07 5b b8 e7 35 56 b8
       -0.00027924616 -5.084208e-05 -5.2220592e-05 -5.1071776e-05
000150 bc 08 5f b8 9e b4 65 b8 17 41 5c b8 82 82 59 b8
       -5.3175478e-05 -5.4766067e-05 -5.2512707e-05 -5.1858377e-05
000160 0e ea 5e b8 5b 60 5a b8 b6 e3 1c 3a 77 e6 1d 3a
       -5.3146905e-05 -5.206499e-05 0.00059848593 0.00060234166
000170 57 1a 1e 3a 7d 7f 1d 3a b3 8b 1e 3a ec b8 1e 3a
       0.00060311466 0.0006008072 0.00060480385 0.0006054777
000180 e4 5b 1d 3a c3 65 1e 3a a0 92 1e 3a 4a 9f 13 39
       0.00060027675 0.00060423854 0.00060490705 0.00014078352
000190 84 76 14 39 3b 0d 15 39 b0 f5 13 39 ff a4 14 39
       0.0001415853 0.00014214676 0.00014110538 0.00014175846
0001a0 c4 33 15 39 de dc 12 39 dc 3a 13 39 7a 3d 13 39
       0.00014229032 0.00014005924 0.0001404094 0.00014041914
0001b0 83 6e 0e 38 8a 72 0e 38 4f ef 0e 38 8b e3 10 38
       3.395836e-05 3.396211e-05 3.407831e-05 3.454419e-05
0001c0 14 e9 10 38 43 60 11 38 bd f7 10 38 cf fc 10 38
       3.4549346e-05 3.4660345e-05 3.4563e-05 3.456772e-05
0001d0 b7 6b 11 38 a0 62 89 b7 cc 4f 88 b7 fb c1 82 b7
       3.467101e-05 -1.6377599e-05 -1.6249622e-05 -1.5587537e-05
0001e0 c2 0c 76 b7 df d9 72 b7 3a 7f 66 b7 df 8b 71 b7
       -1.4665713e-05 -1.4475051e-05 -1.37386905e-05 -1.4397286e-05
0001f0 75 ac 6a b7 31 d9 5e b7 19 1c 19 39 0c 1a 19 39
       -1.398764e-05 -1.32828e-05 0.00014601684 0.0001460092
000200 d2 92 17 39 79 da 16 39 a0 c9 16 39 ae 6a 15 39
       0.00014455177 0.00014386502 0.00014380226 0.00014249489
000210 ae f2 17 39 11 e2 17 39 1c 88 16 39 fb 6d ec 37
       0.00014490887 0.00014484698 0.0001435582 2.8184606e-05
000220 0d ca d8 37 c8 14 e6 37 7d 9a c7 37 26 73 a9 37
       2.5843294e-05 2.7427814e-05 2.3794588e-05 2.019999e-05
000230 24 82 d4 37 dd 01 f2 37 69 fd ed 37 9c 4c 02 38
       2.533297e-05 2.8849516e-05 2.8370605e-05 3.1065763e-05

exp_avg_sq f4 [8, 2, 3, 3]
000000 f5 40 a1 34 d4 70 a1 34 81 71 a1 34 bc 4a a1 34
       3.003585e-07 3.007068e-07 3.0071172e-07 3.0042963e-07
000010 d9 79 a1 34 9b 7a a1 34 ae 44 a1 34 c5 73 a1 34
       3.0077243e-07 3.0077794e-07 3.0038558e-07 3.007282e-07
000020 72 74 a1 34 7b 53 05 32 02 2e 04 32 99 90 05 32
       3.0073312e-07 7.7606e-09 7.693872e-09 7.774497e-09
000030 5c 52 02 32 97 29 01 32 5d 74 02 32 6f 46 03 32
       7.585722e-09 7.518245e-09 7.593454e-09 7.641218e-09
000040 3e 26 02 32 b3 19 04 32 b2 c7 20 38 0b 23 21 38
       7.575691e-09 7.689255e-09 3.8332953e-05 3.8418028e-05
000050 0c e2 20 38 1f 82 21 38 d8 dd 21 38 98 9c 21 38
       3.8357495e-05 3.8506576e-05 3.8592e-05 3.853123e-05
000060 f3 02 21 38 5b 5e 21 38 51 1d 21 38 2f 25 0a 36
       3.8388138e-05 3.8473267e-05 3.8412694e-05 2.0585246e-06
000070 1f 55 0a 36 af ac 09 36 02 f1 0a 36 29 15 0b 36
       2.061315e-06 2.0515106e-06 2.0703887e-06 2.072493e-06
000080 a5 5f 0a 36 d3 e2 09 36 d8 07 0a 36 56 6a 09 36
       2.0619275e-06 2.054662e-06 2.0568168e-06 2.0476486e-06
000090 ef 80 7a 33 33 89 7a 33 51 44 7b 33 d1 0e 78 33
       5.8324925e-08 5.8332443e-08 5.8502625e-08 5.7755475e-08
0000a0 d1 13 78 33 c6 83 78 33 89 0a 78 33 92 0f 78 33
       5.7760023e-08 5.7861847e-08 5.775158e-08 5.775616e-08
0000b0 66 7f 78 33 c9 63 25 32 5a e2 25 32 31 62 28 32
       5.7857868e-08 9.626953e-09 9.65573e-09 9.801213e-09
0000c0 c3 54 25 32 cd 69 25 32 4e 48 27 32 7b 9b 26 32
       9.623537e-09 9.62832e-09 9.7371196e-09 9.697824e-09
0000d0 11 8d 26 32 f3 58 27 32 e7 c1 b5 34 9e a6 b6 34
       9.6945465e-09 9.740904e-09 3.385496e-07 3.4021372e-07
0000e0 1e 8f b6 34 b8 f5 b6 34 fb df b7 34 6a c8 b7 34
       3.4004273e-07 3.4078926e-07 3.4249373e-07 3.4232227e-07
0000f0 97 a7 b5 34 67 8c b6 34 4c 75 b6 34 90 e6 8c 32
       3.3835815e-07 3.4002298e-07 3.3985486e-07 1.6402993e-08
000100 58 c3 8e 32 ab ec 92 32 3a 38 90 32 11 7d 91 32
       1.6619808e-08 1.7104261e-08 1.6789375e-08 1.6937095e-08
000110 66 cb 96 32 25 5f 8f 32 28 ab 91 32 9e bd 95 32
       1.7554793e-08 1.6690658e-08 1.6958055e-08 1.743211e-08
000120 35 70 2a 37 a6 0d 2b 37 af 0c 2b 37 9f 73 2a 37
       1.0158915e-05 1.0195572e-05 1.0195347e-05 1.015971e-05
000130 0c 11 2b 37 15 10 2b 37 b9 de 29 37 78 7b 2a 37
       1.0196363e-05 1.0196139e-05 1.0125042e-05 1.0161537e-05
000140 85 7a 2a 37 da ea 13 35 ae 82 15 35 3c ef 14 35
       1.0161316e-05 5.510352e-07 5.569699e-07 5.548243e-07
000150 2f e7 14 35 a5 ba 16 35 48 e4 15 35 06 c7 13 35
       5.547071e-07 5.615096e-07 5.583902e-07 5.5051385e-07
000160 f8 79 15 35 ef fa 14 35 1f 02 d5 37 b9 a2 d5 37
       5.5684313e-07 5.5499453e-07 2.5392566e-05 2.5467352e-05
000170 c2 02 d5 37 db 3b d6 37 9e dd d6 37 65 3c d6 37
       2.5392863e-05 2.553866e-05 2.5613987e-05 2.5538911e-05
000180 79 73 d5 37 98 14 d6 37 16 74 d5 37 7b d8 cb 35
       2.544535e-05 2.5520378e-05 2.5445635e-05 1.5187683e-06
000190 e3 c1 cc 35 04 2e cc 35 bc 1a cd 35 83 f8 cd 35
       1.5255613e-06 1.5212577e-06 1.5281471e-06 1.5346017e-06
0001a0 17 7e cd 35 7f 8c cb 35 ce 46 cc 35 0e bf cb 35
       1.5310387e-06 1.5165568e-06 1.5219791e-06 1.5180283e-06
0001b0 33 44 a9 36 4c 45 a9 36 8f 13 a9 36 63 6a a9 36
       5.044532e-06 5.0446597e-06 5.0388694e-06 5.0489775e-06
0001c0 9d 6b a9 36 9e 39 a9 36 73 62 a9 36 90 63 a9 36
       5.0491203e-06 5.0433e-06 5.0480535e-06 5.048183e-06
0001d0 a8 31 a9 36 c2 b5 cb 34 9f 7e cc 34 6d e2 ca 34
       5.0423732e-06 3.7943943e-07 3.809009e-07 3.7790178e-07
0001e0 e0 cd cd 34 91 b5 ce 34 be 8b cc 34 53 82 cc 34
       3.833402e-07 3.8502597e-07 3.8099637e-07 3.8092784e-07
0001f0 7e f5 cc 34 18 01 cb 34 86 f0 b9 33 ad f0 b9 33
       3.817658e-07 3.7812492e-07 8.658485e-08 8.6585125e-08
000200 85 3e b9 33 1a d9 bc 33 d9 d8 bc 33 ae 87 bb 33
       8.626106e-08 8.793923e-08 8.7938766e-08 8.732546e-08
000210 41 a3 bb 33 16 a3 bb 33 75 63 ba 33 1c bd a2 31
       8.737562e-08 8.737531e-08 8.679391e-08 4.73632e-09
000220 d0 88 9d 31 73 28 a1 31 0d 07 ba 31 0e 8b b1 31
       4.584855e-09 4.6903152e-09 5.414114e-09 5.1671867e-09
000230 ee 41 b4 31 f8 90 c8 31 d3 33 c4 31 9f 74 c2 31
       5.246185e-09 5.837247e-09 5.7102425e-09 5.6594014e-09

exp_avg f4 [8]
000000 a0 7b 9e 38 d5 bf 7a ba e7 82 67 b7 86 95 82 b8
       7.557054e-05 -0.00095653284 -1.3799151e-05 -6.226734e-05
000010 5e 52 0e b9 69 e2 f6 39 83 e2 70 b8 99 e7 b7 38
       -0.0001357286 0.00047089465 -5.7431414e-05 8.7692584e-05

exp_avg_sq f4 [8]
000000 38 2a 80 34 a8 a5 a6 37 18 43 28 33 87 98 f0 34
       2.3872576e-07 1.9865882e-05 3.917657e-08 4.4814462e-07
000010 b9 53 45 36 e2 6d 44 37 56 34 07 36 75 85 58 33
       2.940402e-06 1.17080945e-05 2.014703e-06 5.0412797e-08

exp_avg f4 [8, 8, 3, 3]
000000 d4 04 01 b8 aa 3c 05 b8 5f 23 07 b8 cf bd 04 b8
       -3.0760493e-05 -3.176617e-05 -3.221945e-05 -3.1648025e-05
000010 4d 7e 0c b8 92 de 0b b8 f1 3c 11 b8 c6 e1 14 b8
       -3.3496228e-05 -3.3347467e-05 -3.462745e-05 -3.5496218e-05
000020 47 38 16 b8 16 71 76 b9 5c 28 7a b9 8a 48 79 b9
       -3.58152e-05 -0.00023502516 -0.00023856893 -0.00023773513
000030 d7 63 7b b9 cd 18 7f b9 6c 8f 7d b9 a8 90 7b b9
       -0.00023974419 -0.00024327934 -0.00024181389 -0.00023991114
000040 d3 24 7e b9 f9 55 7e b9 7f d2 10 36 ef ad 39 36
       -0.00024237046 -0.00024255355 2.1580197e-06 2.766839e-06
000050 a3 44 21 36 4e 89 45 36 49 af 5c 36 30 4a 39 36
       2.4030821e-06 2.943521e-06 3.2884584e-06 2.761033e-06
000060 c0 22 9f 36 fa 50 a6 36 ab b6 90 36 0e 4e 0b b8
       4.7426147e-06 4.9566124e-06 4.3128e-06 -3.3212877e-05
000070 63 38 10 b8 4c 48 10 b8 09 0a 0d b8 c9 89 36 b8
       -3.438479e-05 -3.4399607e-05 -3.3626366e-05 -4.3520504e-05
000080 04 c2 1c b8 9c 27 11 b8 8b d1 18 b8 7f 82 16 b8
       -3.737399e-05 -3.4607583e-05 -3.6434776e-05 -3.588432e-05
000090 96 46 ef b7 2c 90 fe b7 45 35 fa b7 cc 93 00 b8
       -2.852389e-05 -3.0346295e-05 -2.9827128e-05 -3.0655225e-05
0000a0 1d ae 14 b8 94 3a 06 b8 cd 07 0c b8 74 28 11 b8
       -3.5448105e-05 -3.2002645e-05 -3.3385866e-05 -3.460837e-05
0000b0 00 9a 0f b8 dc a8 f9 b8 42 af f2 b8 40 08 f4 b8
       -3.423728e-05 -0.00011904698 -0.000115721035 -0.00011636363
0000c0 82 cd e7 b8 d8 cc d9 b8 95 60 e5 b8 81 99 e5 b8
       -0.00011053217 -0.000103855215 -0.00010937561 -0.00010948163
0000d0 04 69 e0 b8 95 f7 e1 b8 41 ac 89 b7 79 cf 6f b7
       -0.00010700713 -0.00010774952 -1.6411885e-05 -1.4293816e-05
0000e0 35 43 8d b7 80 24 86 b7 c7 0c 5e b7 cb 87 8f b7
       -1.6839806e-05 -1.5991041e-05 -1.3235206e-05 -1.7110162e-05
0000f0 41 c9 7c b7 fe e3 7b b7 79 0e 93 b7 d0 eb 8e b8
       -1.5067229e-05 -1.5013849e-05 -1.7530505e-05 -6.815011e-05
000100 66 f6 8f b8 bc 96 91 b8 67 6b 94 b8 71 c7 a9 b8
       -6.864667e-05 -6.942215e-05 -7.077195e-05 -8.095697e-05
000110 fd cf 95 b8 0e bf 8d b8 09 ad 8c b8 98 0a 91 b8
       -7.1436145e-05 -6.758991e-05 -6.7079505e-05 -6.916112e-05
000120 fb 61 9b 36 33 66 bd 36 9d 9e c9 36 22 06 e9 36
       4.6307664e-06 5.6445365e-06 6.008732e-06 6.944655e-06
000130 fc dc 13 37 f0 f9 0b 37 68 c0 eb 36 13 13 07 37
       8.813335e-06 8.343239e-06 7.025945e-06 8.051068e-06
000140 85 a8 05 37 10 3c 3f 38 01 ea 41 38 9c 95 41 38
       7.966654e-06 4.5593886e-05 4.623272e-05 4.615412e-05
000150 e4 27 42 38 92 e9 43 38 24 50 42 38 2d 9c 3e 38
       4.6290355e-05 4.6709152e-05 4.632784e-05 4.544498e-05
000160 34 5a 3f 38 8b bc 3f 38 60 31 b3 b5 4e 72 b5 b5
       4.5621957e-05 4.5713543e-05 -1.3350909e-06 -1.3518818e-06
000170 76 06 b3 b5 e4 2b e4 b5 b0 84 e8 b5 ca 91 e6 b5
       -1.333842e-06 -1.7000098e-06 -1.7323964e-06 -1.7178766e-06
000180 cf af bf b5 cd 73 bb b5 ea 9d b7 b5 f4 14 97 36
       -1.4281776e-06 -1.3966288e-06 -1.3680522e-06 4.50259e-06
000190 3f b9 8a 36 85 17 9f 36 f1 de ae 36 fa c4 05 37
       4.134286e-06 4.7413073e-06 5.211558e-06 7.97328e-06
0001a0 c7 92 d9 36 5d 2b b9 36 5a 71 c3 36 0f df c7 36
       6.484191e-06 5.518478e-06 5.8246487e-06 5.9566296e-06
0001b0 57 ff 9a 36 2b 11 b4 36 78 09 c0 36 09 68 e2 36
       4.619283e-06 5.3664166e-06 5.723148e-06 6.747436e-06
0001c0 c1 81 0e 37 5f 31 04 37 a0 10 d9 36 82 36 f0 36
       8.49407e-06 7.879308e-06 6.4690394e-06 7.158903e-06
0001d0 06 83 f2 36 cc 61 d2 37 f4 d0 c6 37 eb a1 c2 37
       7.227415e-06 2.5079491e-05 2.370074e-05 2.3202001e-05
0001e0 84 73 b2 37 cd 93 a2 37 64 bd a9 37 59 1f b6 37
       2.1273045e-05 1.938073e-05 2.0234562e-05 2.1710688e-05
0001f0 f4 f0 ae 37 f6 e6 ac 37 4c c5 88 b5 6f 10 a3 b5
       2.0854619e-05 2.0611547e-05 -1.019021e-06 -1.2149229e-06
000200 ba ce c5 b5 19 28 eb b5 48 b1 e5 b5 51 57 f8 b5
       -1.4737809e-06 -1.7520534e-06 -1.7113425e-06 -1.8502852e-06
000210 bd d6 11 b6 8f a1 09 b6 8d d4 10 b6 30 67 90 37
       -2.1731678e-06 -2.050863e-06 -2.1581393e-06 1.7214188e-05
000220 0b b9 8d 37 73 ff 8e 37 4f cc 99 37 1a 5b ac 37
       1.6894677e-05 1.7046672e-05 1.833416e-05 2.054642e-05
000230 fc 10 92 37 21 d5 8a 37 c7 e7 85 37 1f e8 87 37
       1.7412465e-05 1.6550128e-05 1.5962765e-05 1.6201344e-05
000240 fd 8f a4 37 f7 41 a6 37 75 cf a7 37 0c b6 8e 37
       1.9617373e-05 1.981946e-05 2.0004556e-05 1.7012491e-05
000250 92 1b 82 37 c5 39 94 37 15 d6 9c 37 8e e0 9d 37
       1.5510046e-05 1.7669876e-05 1.8696339e-05 1.8820425e-05
000260 81 85 a3 37 81 78 41 39 96 b3 41 39 77 4e 42 39
       1.9493282e-05 0.00018450806 0.00018472815 0.00018530512
000270 75 6c 42 39 95 eb 42 39 e6 4b 44 39 e2 3b 45 39
       0.00018541685 0.00018589043 0.00018720291 0.00018809692
000280 1e 73 46 39 f1 43 46 39 6c 45 18 b7 4f 2e 19 b7
       0.00018925636 0.00018908062 -9.07607e-06 -9.130293e-06
000290 28 f5 0f b7 0c 8a 57 b7 35 6a 4e b7 8e 2a 49 b7
       -8.580544e-06 -1.284714e-05 -1.2303285e-05 -1.1990442e-05
0002a0 c5 d0 49 b7 ac 65 4b b7 76 17 44 b7 ce 13 d0 37
       -1.20291415e-05 -1.2123415e-05 -1.1687973e-05 2.4804755e-05
0002b0 35 71 d9 37 37 e9 c7 37 2c 47 c9 37 1c 35 8b 37
       2.5921132e-05 2.3831248e-05 2.399421e-05 1.6594822e-05
0002c0 be 12 ad 37 92 97 c4 37 ce 70 c8 37 7d ba b9 37
       2.0631935e-05 2.3435601e-05 2.3894387e-05 2.2140559e-05
0002d0 72 84 7d 37 01 d7 83 37 42 bb 80 37 5b e8 5f 37
       1.51108125e-05 1.5716536e-05 1.5345988e-05 1.3345935e-05
0002e0 2d d7 44 37 d2 9f 64 37 d0 1c 82 37 46 17 87 37
       1.173261e-05 1.362707e-05 1.5510625e-05 1.6104092e-05
0002f0 5d f5 83 37 d0 2b 1a 39 59 d0 1a 39 02 4d 19 39
       1.5730673e-05 0.00014702906 0.000147642 0.00014619905
000300 58 93 1a 39 29 08 1d 39 38 8d 17 39 66 ed 12 39
       0.00014741474 0.00014975727 0.0001445309 0.00014012083
000310 12 57 12 39 4d 85 10 39 35 63 4d b7 1c a0 49 b7
       0.00013956081 0.00013782569 -1.2242051e-05 -1.2017812e-05
000320 04 71 44 b7 3d 2b 5e b7 eb 5b 55 b7 d3 54 5b b7
       -1.1708824e-05 -1.3242298e-05 -1.2717191e-05 -1.3073167e-05
000330 1b a7 84 b7 96 55 89 b7 b9 6c 89 b7 0f 66 88 38
       -1.581344e-05 -1.6371527e-05 -1.63823e-05 6.503995e-05
000340 b5 2b 8b 38 fa 3a 8b 38 8c 15 84 38 6f f3 6b 38
       6.6361776e-05 6.639022e-05 6.298264e-05 5.625508e-05
000350 4d 36 89 38 d5 03 8e 38 f8 63 93 38 4c 34 90 38
       6.5427834e-05 6.7718014e-05 7.028127e-05 6.876196e-05
000360 67 ad 20 37 e7 69 23 37 89 62 17 37 1a 4d 21 37
       9.5771165e-06 9.740214e-06 9.023243e-06 9.614299e-06
000370 54 61 36 37 c1 29 18 37 9f 7d 03 37 b3 79 08 37
       1.0870706e-05 9.069628e-06 7.837457e-06 8.134567e-06
000380 35 4e fa 36 63 de 56 39 b8 c9 56 39 ab 6b 55 39
       7.459685e-06 0.00020491476 0.00020483776 0.00020353372
000390 5d 65 55 39 76 f8 54 39 c2 7d 53 39 c9 16 53 39
       0.00020351024 0.00020310454 0.00020169377 0.00020131016
0003a0 09 30 52 39 06 15 52 39 31 95 7b b6 70 a7 67 b6
       0.00020045055 0.00020034992 -3.7488755e-06 -3.4519144e-06
0003b0 d9 a7 7a b6 d4 b0 c7 b5 bd e7 a4 b5 20 d0 ba b5
       -3.7350603e-06 -1.4878119e-06 -1.2286397e-06 -1.3918652e-06
0003c0 a7 49 8c b5 36 cc 0c b5 03 4c 51 b5 f3 92 0b 38
       -1.0452248e-06 -5.245123e-07 -7.796918e-07 3.327704e-05
0003d0 09 aa 08 38 ab 31 0e 38 b3 b9 0c 38 5f d0 2b 38
       3.2583284e-05 3.3901695e-05 3.3551547e-05 4.0963638e-05
0003e0 a0 f4 14 38 66 c8 0d 38 79 28 0d 38 7a ce 0c 38
       3.5513774e-05 3.3803655e-05 3.3654713e-05 3.3570897e-05
0003f0 dc a2 ad 37 05 84 a8 37 59 dd 9b 37 bd 65 a4 37
       2.0699044e-05 2.0088637e-05 1.8580513e-05 1.9597699e-05
